baseline_real_layer_states.npz (npz, 308402 bytes, 5 tensors)

X1 f8 [80, 6, 16]
-0.1473222094275729 0.07944210852325394 0.06420994267940162 -0.1423883578182912 0.10837761191395952 -0.01664762227221138 -0.16203943820604952 0.2065460962801593
-0.09547005258828982 0.12007896625844282 0.15016931005595124 0.06786236457154247 -0.041402940712544294 0.004175412889773844 -0.08797592357295281 0.022377399735213296
0.02519664894462652 -0.020075511816390224 -0.006212839101900644 -0.08047558339365245 0.16111342177858476 -0.04040934825206804 0.09658725485086966 0.02282721878366339
-0.19917453703264698 0.04282694461447666 0.15973117869848363 0.14598431292477335 -0.11699213933997901 -0.08282736377119769 -0.06607062985857466 0.01666154988833758
0.05795311739286259 0.12577884782653195 0.01630087911208434 -0.04493500179202885 -0.08900650195321459 0.03924063055525479 0.030551531536281665 -0.08008538030540756
0.06754153479541801 0.025858413724127807 0.08741149058608955 -0.0006679843156024688 -0.05085582887362753 -0.16783097814657977 0.0062295263434193815 -0.05725338872414906
0.16226936378786155 0.1238770867076082 0.0690366307760618 0.042304876687605165 -0.04843174822071611 0.0283271435826328 0.02971827221065176 -0.22228444243543033
-0.051518300481496394 0.0207700598935367 -0.16483553192729833 -0.029576078999818567 0.001822811680142909 -0.09312693865040081 -0.019253756044986765 -0.326423511443388
-0.09273055518998255 0.10224091409562197 -0.14964065683069963 0.024011932480465778 -0.19356496688172836 0.08559312585614706 -0.06318021778033756 -0.08926785638525091
-0.007996492761636262 0.0998939535068303 -0.15265178565098192 -0.03340065467693657 -0.008254144286493844 -0.20519536337335845 -0.007253967490361474 0.015713570194403313
-0.15860795152481733 -0.047421652733920655 -0.052404472021378726 0.15597013720805925 0.10870086777932114 0.14700700660268826 -0.1264046913115647 -0.18200786283093492
-0.17375482479827736 -0.07389766734616714 -0.11266764054397777 0.006635332227100202 -0.0961592234464729 0.23609772320055994 0.04356732433584256 0.18311129297080753
-0.14458598524399927 0.0838742492426536 0.052291142789437445 -0.14465686801152994 0.11535230334034227 -0.018954517099206314 -0.1567612135838093 0.21748469773188994
-0.1098786000728451 0.1129894920863173 0.1470043973138974 0.07157492892039301 -0.052934980923402396 0.0023810892494134533 -0.08890568937116455 0.03936948128732494
0.022737674098684713 -0.026463382511080175 -0.003666944930370658 -0.07768774529364783 0.16204008973328976 -0.039515825132761036 0.10190813296197665 0.01235039191851729
-0.18740721425478885 0.04442508510059066 0.16903820747364812 0.14967367406054005 -0.11858572280065971 -0.08354819819185588 -0.06494775060243257 0.021180835032791334
0.056064106073821084 0.13298295384229536 0.029821098039453917 -0.04364577588432394 -0.08871770567105797 0.034013983008471 0.020955993885241952 -0.08008094072177033
0.07000698412179958 0.025193447240159907 0.09394443027489616 0.002265275824040098 -0.05475198756528782 -0.15770467654289974 0.013367384506366292 -0.05189948486217415
0.16252707754210105 0.12413584767167453 0.076221714833652 0.05003955295904332 -0.04532028055393642 0.03567184856191443 0.02737890699077863 -0.23235912346922655
-0.04899510187683881 0.042470588457845286 -0.15300707540593775 -0.020460503019428075 0.0006624652650226326 -0.09284652513652268 -0.02617287101091219 -0.33056304046959173
-0.10378195867043302 0.11685149977080422 -0.14875293890656865 0.029943781730639336 -0.20075513989749327 0.09592584423862244 -0.0608635659386847 -0.07948386943872819
-0.009926642139007296 0.09054842833047815 -0.15210443880829747 -0.031036793293960058 -0.0083099084693051 -0.19697323057203878 -0.014979040973904883 0.01694560499588673
-0.16309416833643842 -0.053463721680337105 -0.04367064680808225 0.1529554149893588 0.09624273448813014 0.14857572164840738 -0.12106811905889563 -0.17594208818104168
-0.17131714530056838 -0.0769380812241044 -0.1049957578024922 0.006163754680613177 -0.08978093382261615 0.23747182073845316 0.04463728685317572 0.18353347369913667
-0.13997684431783444 0.08191433751441596 0.06304170049551538 -0.13373124798623454 0.12296834757124094 -0.015613438135943632 -0.15243601532751921 0.22362097391770525
-0.11150231408113644 0.11007106831501302 0.15139045710948473 0.06857505582914454 -0.03940918202705134 0.007410211943431996 -0.08112373426975182 0.052019112301615614
0.029794280711489696 -0.01854766586466619 -0.002405413705963527 -0.056322180726639456 0.17753271824897207 -0.04059588833845012 0.1093324389001223 0.0077646676400407585
-0.17070048442501407 0.05218168994778269 0.1670039920941414 0.15791982764842072 -0.12018672290642345 -0.07942340974469532 -0.061446571103302476 0.02895355325835871
0.04932432738926571 0.14293180769337344 0.04044925255562622 -0.03633018926465476 -0.07541559706449304 0.030057841435926894 0.03400437404753873 -0.07587624449303412
0.06237949564697113 0.03126307406580143 0.09890034269014462 0.017069601673523706 -0.03893405582143607 -0.16553997426795686 0.02808534384461035 -0.047932334041543984
0.1657116279849342 0.13030634439860792 0.08732373548802466 0.043016330423407675 -0.04066102941381423 0.046760087395366585 0.025066972296152998 -0.21419661753029567
-0.035708682554447486 0.0587262284542934 -0.13948435491298405 -0.019819954434978033 -0.0017416691433869865 -0.09941832275534654 -0.02433707714180594 -0.32525923731582584
00000000: 3ca2 bb43 74db c2bf 4f5c 086a 5156 b43f
00000010: 21d5 e213 1070 b03f 0992 141e c839 c2bf
00000020: 45fe c99a a2be bb3f fc79 dc04 130c 91bf
00000030: c9eb e053 b5bd c4bf 60e3 513c 1a70 ca3f
00000040: fb35 9db1 b970 b8bf d77a 04c1 7ebd be3f
00000050: 14cf c679 bf38 c33f f7c8 768c 6d5f b13f
00000060: 2720 a328 c432 a5bf 7327 f1dc 3c1a 713f
00000070: 58cb 9412 9785 b6bf cf08 21e0 19ea 963f
00000080: 4d6d be7c 26cd 993f c0b3 ceca ac8e 94bf
00000090: 96a8 204c a272 79bf c760 cd3e 0c9a b4bf
000000a0: 9f2a be56 5d9f c43f 47ff 63ba 88b0 a4bf
000000b0: bc7e cb3c f1b9 b83f cfb2 89b8 0460 973f
000000c0: 0026 601d 8d7e c9bf bf78 03cd 69ed a53f
000000d0: a8ac 543e 1272 c43f d9d6 de2c 9daf c23f
000000e0: 6ab2 5a64 32f3 bdbf e776 9c92 2c34 b5bf
000000f0: adfc 773a 01ea b0bf 03fd 7baf b90f 913f
00000100: d2a3 ceef 07ac ad3f 1dc5 f872 8519 c03f
00000110: a2d4 ba7a 2db1 903f 36f1 4876 b801 a7bf
00000120: 093a 054f 21c9 b6bf 9987 d111 5917 a43f
00000130: 0407 2a93 e648 9f3f 9fa8 4cb9 7980 b4bf
00000140: 3f66 11eb 664a b13f 8715 16c5 a07a 9a3f
00000150: 48a3 5c75 9960 b63f eaa4 1665 75e3 45bf
00000160: d57a a573 c609 aabf 9497 3249 7c7b c5bf
00000170: 3706 a2be 2184 793f fc8f 4ff0 5050 adbf
00000180: a648 4e15 3ec5 c43f ef07 22a4 68b6 bf3f
00000190: 27c2 6877 62ac b13f ad4d ab1b fca8 a53f
000001a0: d864 64cd 0bcc a8bf e723 1b6d ca01 9d3f
000001b0: 8f18 f47c 776e 9e3f f4ba 550d d173 ccbf
000001c0: 8d53 6d4f 9b60 aabf b130 ea1f bf44 953f
000001d0: 725a 6ca9 5419 c5bf d049 3110 3149 9ebf
000001e0: c508 6423 6ddd 5d3f 424c e1c3 2ad7 b7bf
000001f0: 354d 27b2 41b7 93bf 8cde 9270 1fe4 d4bf
00000200: 8a82 e18d 30bd b7bf 6095 5ae6 752c ba3f
00000210: 39b2 9ecf 6c27 c3bf cc93 de82 9596 983f
00000220: b244 34a1 bcc6 c8bf 3e87 505c 6ee9 b53f
00000230: b0e6 1e29 942c b0bf af38 c21b 42da b6bf
00000240: f8c3 2617 7760 80bf 6946 616f a692 b93f
00000250: 1803 86fd 178a c3bf c53e 01ff e319 a1bf
00000260: feb9 227e 8ce7 80bf 555d 7d77 d743 cabf
00000270: a095 3212 56b6 7dbf b97b 5ad8 3717 903f
00000280: 68a2 57ee 434d c4bf 449a 3a9f a647 a8bf
00000290: 9aef fd4a c2d4 aabf 260a 3b57 d4f6 c33f
000002a0: 84b4 28f0 d1d3 bb3f 7719 d226 20d1 c23f
000002b0: 2b40 9f67 072e c0bf d7a2 3c9d 084c c7bf
000002c0: 9ef1 031d 993d c6bf 33a2 8020 f5ea b2bf
000002d0: b430 7457 c9d7 bcbf eaa7 9d6e a62d 7b3f
000002e0: ba4e e90f e49d b8bf 423a e73f 7338 ce3f
000002f0: c3b1 64d2 744e a63f 1440 6bdb 3070 c73f
00000300: f99c 0a27 cb81 c2bf ae47 7965 c878 b53f
00000310: fc5c 4d98 e7c5 aa3f ea2a a0c2 1d84 c2bf
00000320: 5e73 5d82 ba87 bd3f 50d3 351c d068 93bf
00000330: 72d6 cf5e c010 c4bf e4c7 11e0 89d6 cb3f
00000340: 8fd7 d701 0121 bcbf 0369 4d1d e1ec bc3f
00000350: a56a 6a43 0ad1 c23f 7b36 ed0a bc52 b23f
00000360: 6bc3 c237 4b1a abbf a514 908e 8181 633f
00000370: 5c09 47f4 85c2 b6bf cad8 2d95 3c28 a43f
00000380: 1057 907a 8b48 973f e5dd b489 3719 9bbf
00000390: d96a ab11 240a 6ebf e610 5615 58e3 b3bf
000003a0: 2ccf 05cb babd c43f 8944 3d11 6b3b a4bf
000003b0: d0a2 44c2 a616 ba3f 0701 108b 294b 893f
000003c0: ce1f 21a8 f5fc c7bf 5513 427f e2be a63f
000003d0: 12d8 6f42 0ba3 c53f 6ac2 94c7 8128 c33f
000003e0: 008c 3349 a25b bebf e8ad df2a 6a63 b5bf
000003f0: 3445 c970 6aa0 b0bf c03c 12c7 6db0 953f
00000400: 1311 223c 6fb4 ac3f 2acd d6de 9505 c13f
00000410: ecb5 3d03 6c89 9e3f 2f3d 1038 bd58 a6bf
00000420: e0ef 6e1c 34b6 b6bf 0c94 41e1 476a a13f
00000430: 83b4 91f1 7c75 953f bad3 6e3d 2f80 b4bf
00000440: cd72 4b4b faeb b13f 9a44 e19f 4fcc 993f
00000450: 3e0a acff bd0c b83f c2dc 94b2 a08e 623f
00000460: 08c3 f7d7 7308 acbf 1fc9 16b6 aa2f c4bf
00000470: b09e 4dfa 5b60 8b3f 0617 53bc 9192 aabf
00000480: f0fe 60f1 afcd c43f 21d6 02ee 5dc7 bf3f
00000490: 76a0 742c 4483 b33f b65c eec6 c89e a93f
000004a0: 4d3f a645 3834 a7bf d32d ec9d 9443 a23f
000004b0: 87a2 8058 3709 9c3f 7e20 1d9a f1bd cdbf
000004c0: d84e 73d0 e215 a9bf b7c7 ef78 b4be a53f
000004d0: f569 7660 bc95 c3bf 4c07 501d 99f3 94bf
000004e0: 9aee f152 29b5 453f 0f34 0235 cac4 b7bf
000004f0: 0d1e 23a4 0fcd 9abf 7e53 05e2 f127 d5bf
00000500: 6682 6756 7491 babf 5810 01da fae9 bd3f
00000510: 06d0 e417 560a c3bf b2b2 012d 95a9 9e3f
00000520: b48b 2e2c 58b2 c9bf 4498 d89b 988e b83f
00000530: 81fd 7262 8229 afbf d782 cc0b 0e59 b4bf
00000540: c3e0 c45a 6b54 84bf d733 628a 2e2e b73f
00000550: 7708 2183 2878 c3bf 685b aef0 1bc8 9fbf
00000560: b00a de08 c904 81bf a547 bf37 6b36 c9bf
00000570: b6ee ddd8 54ad 8ebf c6b4 124d 305a 913f
00000580: 682f 960b 45e0 c4bf c36b 47d0 985f abbf
00000590: 78f8 abbf ff5b a6bf 3f0d 9004 0b94 c33f
000005a0: 48a8 1a25 5da3 b83f 30d1 ba7c 8704 c33f
000005b0: 9339 f2fb 51fe bebf 721f 5d35 4585 c6bf
000005c0: c7ae 2760 b8ed c5bf 58ad acce 36b2 b3bf
000005d0: 2cfe fa81 00e1 babf a87c 614c 2a3f 793f
000005e0: d48d 921e e2fb b6bf 9788 e503 7a65 ce3f
000005f0: 04e1 6ece b2da a63f 2529 a15d 067e c73f
00000600: c96c 45e0 c2ea c1bf 0cab b288 56f8 b43f
00000610: 5897 e939 8023 b03f 2aee 4604 1b1e c1bf
00000620: e5fa 4287 da7a bf3f 0440 6031 f0f9 8fbf
00000630: 5639 48fa 0583 c3bf 268e d6b0 9c9f cc3f
00000640: 2124 6868 6a8b bcbf 5115 a616 9e2d bc3f
00000650: e419 1b33 c360 c33f 6588 1b86 228e b13f
00000660: 8fc4 efb7 702d a4bf bc68 419f 2b5a 7e3f
00000670: d733 9e69 86c4 b4bf 826c 34c4 3fa2 aa3f
00000680: 3d05 0e55 6482 9e3f c837 39c9 28fe 92bf
00000690: 7332 6aa6 84b4 63bf 6648 85c8 42d6 acbf
000006a0: 6fb6 6c61 64b9 c63f 470b 88f9 fbc8 a4bf
000006b0: 25cb 77f1 35fd bb3f 4fa7 4019 d8cd 7f3f
000006c0: 4426 0273 83d9 c5bf 9c2d 8df7 8eb7 aa3f
000006d0: 8442 2c06 6360 c53f 04e9 9187 b736 c43f
000006e0: 9be7 4b9c 8ec4 bebf 01e9 63b3 1755 b4bf
000006f0: 7717 aeca ec75 afbf 06fd 6311 00a6 9d3f
00000700: ad74 11ca 0941 a93f 20f4 cce7 964b c23f
00000710: aa84 bfb1 c3b5 a43f d994 7fdd de99 a2bf
00000720: 6514 00c3 6f4e b3bf 7498 d297 7bc7 9e3f
00000730: cc06 e974 0569 a13f d210 a424 a06c b3bf
00000740: 554b 7d8b 34f0 af3f f1bd 5eb1 b601 a03f
00000750: 5bd8 6a69 8851 b93f 0a2d c693 b17a 913f
00000760: 324c e820 2aef a3bf e0ad d4f3 6930 c5bf
00000770: dbf1 3c85 67c2 9c3f f43d 423e 968a a8bf
00000780: 1f90 61e3 0936 c53f 71a0 d3d7 e0ad c03f
00000790: 3aeb 152c d95a b63f 1e95 b988 3c06 a63f
000007a0: 51a9 1bbf 85d1 a4bf 190e 3e2c f0f0 a73f
000007b0: 4c09 e308 28ab 993f a26c 9a75 cb6a cbbf
000007c0: a15a 828f 6848 a2bf ccd9 413d 5d11 ae3f
000007d0: 88d4 5393 9fda c1bf d2fe 6ca0 ae4b 94bf
000007e0: 4b21 b900 1789 5cbf a67d dbac 7a73 b9bf
000007f0: 10fd 9d99 d1eb 98bf 7493 bf1e 0cd1 d4bf

X2 f8 [80, 6, 16]
0.009838598454131212 0.07628453833917581 0.08940893121424259 -0.08365398058272845 0.1863839036782933 0.008517961267805655 -0.009239470158392186 -0.06760695988657005
0.06391057542830769 -0.05705057152245409 -0.06552463193729664 -0.10306115733155419 -0.048072890990088935 0.04692633231499618 -0.0769408364682228 0.23630760374520282
0.313640871880884 -0.002676673592427283 -0.006791838096198788 0.010240360312430065 0.0010225976265565426 0.15062590309556242 0.11101271586025013 0.08186439994875316
-0.06118811120360284 -0.15816121118653811 -0.203732259817949 -0.005633755385377519 -0.04673305990545005 0.16311027381810786 0.01975785674106402 -0.07762698758634597
0.04023321701746756 -0.0055407409171717385 0.018659946100041968 -0.030905485488466108 0.16724425192592451 0.1744555038394935 0.027179848545235447 -0.1258453754402308
-0.1600282285623904 -0.15845644891122418 -0.10169152842166851 0.0600457161735658 0.012006883667187232 0.0753812779673727 0.01404257216039884 0.12845261454579313
-0.060620287357447636 0.18642668806032106 0.04012476498884903 0.16506309838436303 0.09459450825910815 -0.11984477786001853 0.02315583520178413 0.21979835086527402
0.02065818335345848 0.05053386632651369 -0.05856446442724447 0.14839732806685474 -0.10914549592415689 -0.09015003686377379 -0.1048074307170591 -0.3504130481123615
0.06705194628236881 0.05162458217393319 -0.12411077703352512 -0.010319401418798089 0.21506054790842677 0.03829559213869504 0.11455431584240837 0.1347014925861538
-0.08464707705560671 0.004603723107372977 0.0874204409539321 0.05338918087802891 0.0444800806303581 -0.045017847776271915 -0.12665041983362402 0.0006577547393679531
-0.1357449430379188 -0.006704125114869715 0.03897080177528387 0.055104083489481065 0.03637262349693939 -0.22079459767444895 0.08305010042359057 0.01972238118784458
0.06963318020331115 0.048882399269945614 -0.09962101317212747 -0.025903511079274712 -0.005995107308979026 -0.03759288237046127 0.1124791638796626 0.05365337312559979
0.014738704468148914 0.07525712501605886 0.0884562331841773 -0.07859682368734405 0.1912293777778337 0.013977999171459199 -0.012748396882450483 -0.07396928940894704
0.0537252323200935 -0.0523539810959369 -0.07304780467373626 -0.09235380758436122 -0.03708826830299871 0.03915561533331762 -0.07941214664274462 0.23429055938206436
0.317119796050156 -0.010461990010484298 -0.008216473422382065 0.025416416674303242 -0.003603638129417745 0.1533852502567974 0.1082970813411508 0.07240801098442469
-0.06344771922196818 -0.15140561519560264 -0.2098277295596427 -0.009108319129700398 -0.046744966041243625 0.15904492594791617 0.011054174602570521 -0.08243248679820571
0.03659931582776068 -0.013556531456610989 0.021076304338575054 -0.024665034016319542 0.1718217665882353 0.17393163749116083 0.024264128410164804 -0.11861657290934231
-0.16926549167274899 -0.1382973805192517 -0.08233553161777293 0.060960957772487744 0.011935325073778003 0.0845520007127285 0.0036271730412728766 0.12809029354148405
-0.05989642789356088 0.1949908788265934 0.04600516080343021 0.16363892979755015 0.09334430962637831 -0.11919514059556703 0.036074502003753416 0.22228246627832285
0.013258530120818941 0.046931089997558184 -0.059318421845750695 0.13514354705643972 -0.10924211559302816 -0.10085548852455789 -0.10539758542693749 -0.3500784344269535
0.08389614158287159 0.04865835242453106 -0.11971950547352643 -0.015725250590646975 0.2008268465796074 0.030053395458586877 0.1299554708963378 0.11441863697631748
-0.07655763037068698 -0.007329996789809182 0.08825994542422773 0.07027256279431143 0.028947408948235418 -0.0503674516256435 -0.11266849495057134 -0.0006600803342685165
-0.1308545282862505 -0.0029456125490643463 0.04057547770732474 0.04590462794233323 0.027387680769703302 -0.21872591394355861 0.08441954508009485 0.023565028283752783
0.06626996137493646 0.07120071087677847 -0.0871316885167237 -0.015737588333517377 0.005477820053908325 -0.02953403209541894 0.11528693071566953 0.0519224055167658
0.026816967452077393 0.0859145658414591 0.09713846395480677 -0.08065727448799022 0.1948157014856649 0.008884385527941258 -0.030114436270100832 -0.07435804208268394
0.06225771788212777 -0.04546768330757908 -0.05987739230701257 -0.08083505597560797 -0.04795659566735726 0.046427239668814346 -0.0731537288434456 0.21537828775973938
0.31841310545119866 -0.015302333235284226 -0.005953254830272734 0.02461727331584145 0.004164439966607922 0.1515842075373667 0.12526882218517635 0.08717139397606712
-0.060053956561682095 -0.1500388647644434 -0.20319255832460253 -0.007529184943907611 -0.03029701170506946 0.16032706140626624 0.005498757376312769 -0.0907802446320852
0.04534933707898042 -0.02043212043729388 0.02693599264399075 -0.022817982774327637 0.16599891987101284 0.1854718600593373 0.022012139589807193 -0.12588237456777693
-0.17811257458777924 -0.13419474036014736 -0.07797125454203506 0.07498375439725535 0.030965812098041667 0.0932705170857605 0.015232750934179404 0.14593545704084326
-0.05629166179588878 0.18582093952417336 0.053760688365912614 0.17014405750467726 0.09731286187103909 -0.12095369555465295 0.047434403946048725 0.22996302186706147
0.013700038852699716 0.039830304327044756 -0.05014453865502401 0.14433678015602933 -0.10071849774654287 -0.10584309040360489 -0.10331105939704609 -0.3455366353692801
00000000: a2b0 ca54 4226 843f a872 5b2d 6287 b33f
00000010: 9415 89f3 80e3 b63f 2975 c8e6 586a b5bf
00000020: 6148 6681 6ddb c73f ef2e 9768 dd71 813f
00000030: ef21 4db1 24ec 82bf 8fde b191 b04e b1bf
00000040: 8847 5587 715c b03f c268 d085 bb35 adbf
00000050: e1cc 40e7 38c6 b0bf 7818 3a4c 3762 babf
00000060: 60d2 408d 029d a8bf 1c70 3a6d ba06 a83f
00000070: 689f 5b08 65b2 b3bf f2dd f0da 533f ce3f
00000080: 6bb5 da29 b112 d43f eb4f 5431 64ed 65bf
00000090: 9ae1 0b28 c2d1 7bbf d40f 21e5 e5f8 843f
000000a0: ffd7 3bd7 15c1 503f 7bea dca7 b547 c33f
000000b0: 9456 0f50 546b bc3f 208f 7cb8 10f5 b43f
000000c0: 4706 0c51 0c54 afbf fb5d c566 a03e c4bf
000000d0: 4275 8710 e613 cabf b84a 24b2 6b13 77bf
000000e0: 7d30 df47 65ed a7bf 515e d825 cce0 c43f
000000f0: e4ed 2a52 673b 943f 1d69 f8bc 5cdf b3bf
00000100: e614 9bbe 7299 a43f 1acb 8e50 e3b1 76bf
00000110: a3ad fac8 971b 933f 0f86 c205 b0a5 9fbf
00000120: 58a0 3b78 4268 c53f 9885 ccd5 8e54 c63f
00000130: 38b5 72c2 08d5 9b3f 5d2f ef85 b31b c0bf
00000140: 305f 0e14 ce7b c4bf 0afe f408 4d48 c4bf
00000150: 28f0 d9bc 7408 babf 30f2 75e6 4fbe ae3f
00000160: a868 6ba5 1097 883f b8bd 99fb 2f4c b33f
00000170: c2ef 7121 5ac2 8c3f ffa9 47a1 2271 c03f
00000180: b245 594f 9f09 afbf cd0b 2968 d4dc c73f
00000190: a709 c6b2 3b8b a43f a72b aba0 c920 c53f
000001a0: 6ca4 5a7f 5837 b83f 7552 81b9 25ae bebf
000001b0: e8e7 9ccb 29b6 973f cd2d 5734 5a22 cc3f
000001c0: c06c 9737 6b27 953f b0f5 6c2e 93df a93f
000001d0: 5c75 d856 29fc adbf c232 6e03 affe c23f
000001e0: 0ffd 7f8f f5f0 bbbf 8227 10a4 1214 b7bf
000001f0: e7bb 4ee7 a8d4 babf 3cfe 6ed9 2a6d d6bf
00000200: eb79 6afc 502a b13f 62a2 3688 896e aa3f
00000210: e7ac 7050 b9c5 bfbf d240 dd9c 5622 85bf
00000220: ac98 f6a1 1a87 cb3f ef1f a2d7 7a9b a33f
00000230: 07a7 2880 6e53 bd3f 1fa1 b004 e63d c13f
00000240: 01e4 a74b 6eab b5bf e2e1 f982 5adb 723f
00000250: 5127 e69e 2f61 b63f 60a8 a9a3 d355 ab3f
00000260: 4bfc 42d7 17c6 a63f fdeb de4f 940c a7bf
00000270: 10e4 9ab9 1436 c0bf 8875 148c a58d 453f
00000280: c3fd 781d 1760 c1bf 6fd4 dde1 c875 7bbf
00000290: 3d5b 3f1e fbf3 a33f 743f ed38 9a36 ac3f
000002a0: f334 c7b8 6e9f a23f 1797 1254 ff42 ccbf
000002b0: ccb3 3f79 c542 b53f efdc cd98 1a32 943f
000002c0: eb8f b0e7 7ad3 b13f dcc9 6d24 1d07 a93f
000002d0: 8994 9141 c380 b9bf 478c bf33 7386 9abf
000002e0: 14cc 3f5d 538e 78bf 08e0 afd0 5f3f a3bf
000002f0: 1736 583a 6fcb bc3f ad00 ca75 7478 ab3f
00000300: a8ab 686d 532f 8e3f 1826 bc0a 0d44 b33f
00000310: a944 a754 11a5 b63f b47e 4ee3 eb1e b4bf
00000320: 7d8c cb49 347a c83f 6080 704a 7fa0 8c3f
00000330: 980f 7edd d41b 8abf 2477 ebbe a6ef b2bf
00000340: cdd1 91a7 df81 ab3f edb1 3e19 24ce aabf
00000350: 7648 1ecc 42b3 b2bf 7b64 3cc7 7fa4 b7bf
00000360: 3f72 dac6 3bfd a2bf f769 9f6e 340c a43f
00000370: be59 bcbc 5a54 b4bf 915c 27a9 3bfd cd3f
00000380: 69c6 3cd4 b04b d43f 78a1 9187 186d 85bf
00000390: bac5 1965 ccd3 80bf 562f 97d9 c206 9a3f
000003a0: bcef 327d 6085 6dbf 1857 c5bc 20a2 c33f
000003b0: 71cc 9c86 5bb9 bb3f dd81 25d7 5489 b23f
000003c0: bc6b 1017 1c3e b0bf 6612 d95a 4261 c3bf
000003d0: 2155 2092 a2db cabf 23cd 44e6 61a7 82bf
000003e0: e9ae ccc8 f4ee a7bf db40 c589 955b c43f
000003f0: 80f0 3733 92a3 863f 691e eda2 4b1a b5bf
00000400: c389 1241 25bd a23f d4d6 06da 86c3 8bbf
00000410: 723c 6bd7 0695 953f 53bc d169 ca41 99bf
00000420: a763 1e72 41fe c53f 61d3 6153 6443 c63f
00000430: 054e f317 b2d8 983f f5c2 68dd a75d bebf
00000440: 61b4 89db 7daa c5bf 8df0 3983 bab3 c1bf
00000450: 1edc 98ff f013 b5bf 8b6c ee4f 4636 af3f
00000460: 2d3e df36 8c71 883f a05e df2d 33a5 b53f
00000470: acb9 dab2 bbb6 6d3f 280d d942 4365 c03f
00000480: 126f e69d beaa aebf dd0c ca0b 76f5 c83f
00000490: 0127 320a fd8d a73f 0d9d ead5 1ef2 c43f
000004a0: 19ed 1ca5 69e5 b73f 9938 b39e 9283 bebf
000004b0: 03b6 a66c 5b78 a23f 0ddf 9179 c073 cc3f
000004c0: 5778 18ca 4927 8b3f c808 6911 5a07 a83f
000004d0: 1773 c1f3 fb5e aebf 68b9 6f3d 624c c13f
000004e0: 6462 d191 4af7 bbbf c4c7 d550 aad1 b9bf
000004f0: 9b6e 7c0e 56fb babf 6a83 b960 af67 d6bf
00000500: aee8 5bb0 377a b53f 8b63 ae60 bfe9 a83f
00000510: 1bbc b300 f0a5 bebf 596e 08b4 471a 90bf
00000520: bdee 1bb1 b1b4 c93f 8177 833a 51c6 9e3f
00000530: 82d0 b780 61a2 c03f f7bd dd2f 8a4a bd3f
00000540: 218c b3e6 4799 b3bf 904b df07 0f06 7ebf
00000550: 45d0 242b 3498 b63f ecf6 01f7 61fd b13f
00000560: 9949 f2ba 63a4 9d3f 32ae 073b c3c9 a9bf
00000570: bb2c 1aad d7d7 bcbf 44b2 65b9 27a1 45bf
00000580: 1ef0 c257 d7bf c0bf 18d0 13b2 6521 68bf
00000590: f289 8b1b 4fc6 a43f 26a7 7eb7 cf80 a73f
000005a0: 796c e024 840b 9c3f 0e70 96f3 35ff cbbf
000005b0: df1f 43f1 849c b53f 0f6d 3b47 6e21 983f
000005c0: 5002 d074 11f7 b03f 5fef aab4 353a b23f
000005d0: f0e4 9f28 434e b6bf c86a d7ac 831d 90bf
000005e0: 2a30 c21f e96f 763f 4017 e057 2b3e 9ebf
000005f0: 187c 14bd 7183 bd3f c891 3fd3 9295 aa3f
00000600: 9eff bc38 e875 9b3f d202 8a3a 7ffe b53f
00000610: 229c defd 10de b83f 0944 1c84 f4a5 b4bf
00000620: d269 508d b8ef c83f 0aee 4c0a fa31 823f
00000630: aa94 ab9b 51d6 9ebf 7191 f0ee 2009 b3bf
00000640: 0365 745c 3ee0 af3f 9c70 a949 8a47 a7bf
00000650: 5aee 74e3 3fa8 aebf d41a c931 9bb1 b4bf
00000660: 769f 0954 c48d a8bf 20cf 0aa8 4fc5 a73f
00000670: 7f8a f6e8 33ba b2bf ce28 1907 8491 cb3f
00000680: f3f6 a15c e160 d43f 9962 6266 d456 8fbf
00000690: e4f9 cfac 7062 78bf 4da1 3b3f 4535 993f
000006a0: 3d5e 6757 bb0e 713f c545 fb7e 1c67 c33f
000006b0: e933 3f0b cf08 c03f e920 464e dd50 b63f
000006c0: 6e0c db66 64bf aebf 7c68 a538 7934 c3bf
000006d0: 0eba 65b8 3602 cabf de09 9831 ecd6 7ebf
000006e0: 985b c209 2e06 9fbf 5aac b3de 9885 c43f
000006f0: f432 9971 dd85 763f d653 d1c5 5f3d b7bf
00000700: 688b 4c3f 0738 a73f 74b2 4364 28ec 94bf
00000710: ca06 f7dd 1b95 9b3f 1610 1be7 985d 97bf
00000720: b237 02de 733f c53f 023e a4ba 8abd c73f
00000730: c1e2 9cae 598a 963f 8ba9 f4e4 e91c c0bf
00000740: 1231 6e91 64cc c6bf 812e 9212 4b2d c1bf
00000750: f33f 4994 ecf5 b3bf 0015 dea4 2232 b33f
00000760: 504b 0579 80b5 9f3f 4779 909c 93e0 b73f
00000770: f82a b938 5932 8f3f 269b a857 03ae c23f
00000780: d6d3 e6bc 42d2 acbf 758b 1505 fbc8 c73f
00000790: 2d20 af5c 8586 ab3f c6b0 4bcd 47c7 c53f
000007a0: 035e 37e7 7ee9 b83f b7d1 bc46 d2f6 bebf
000007b0: d49b 4e7b 5249 a83f 9aab 1aa5 6d6f cd3f
000007c0: e135 9c16 c40e 8c3f 87e2 f23c a364 a43f
000007d0: f252 3183 8bac a9bf b7a6 30ab a079 c23f
000007e0: 6a74 ecfd afc8 b9bf 8b82 ca63 8818 bbbf
000007f0: bfe8 6cf5 9772 babf a3c7 1eb1 451d d6bf

X3 f8 [80, 6, 16]
0.2139937974896986 0.007486479923439333 0.046625807144878545 -0.09202388895194435 -0.12421936707750492 -0.029519287676000944 -0.05126936400232166 -0.0690541237012021
-0.06393772541773977 0.12237169024660144 -0.06012953967757428 0.0359932565715251 0.17270431359962757 0.062454471928985525 -0.005146817104698862 -0.08991319739647269
0.04421890046920768 -0.11960953754038138 -0.025732708819701956 -0.258208856283667 -0.018935528773757284 0.14371131828866687 0.033886631946316206 0.04919054586997621
-0.11977737623962492 0.06345358785807978 0.054259437940169054 0.11027681015594913 -0.04358621368242473 -0.19277679339422238 0.06823577848137784 -0.11004380954677023
0.018019826381873032 -0.03445756128573953 0.044752199959056285 -0.0548568041567912 -0.08686751897059554 0.09394621606455124 0.18792503959803486 0.1014824712085249
-0.0023574865190201344 -0.08445255324669143 0.07338789715079834 -0.061559642516886094 0.02074100149882926 -0.12491527690901177 0.2529000127251936 -0.08846017183855238
0.1638707235407676 0.06657988937513006 -0.14236062535248442 -0.06241022602684159 -0.04826811223115526 -0.06400884681849922 -0.07833899685421275 0.04164391573776671
0.0879426802523498 -0.08563665444476093 -0.01822928369967698 0.19291958420875818 0.05352898567220891 0.1393336082246681 0.016647443057006883 -0.08092888469121079
0.10639232959462622 -0.10056910210150448 -0.2034184680550918 -0.09933253666230427 0.035034322503364225 -0.0678637616340638 0.050294742145272575 0.03077838900486021
0.01940654818323355 -0.043933670499250066 -0.08323890626101885 -0.06764975135218014 0.04481152104069669 0.05083875846418071 0.14609344011657582 0.033724001254541794
0.049217761636315666 0.018334737252963102 0.08444407334375705 -0.01358831246586571 0.1703713460237149 -0.11305119259103912 0.03213641472831257 -0.17166626162812654
-0.023898028607606113 -0.11603673042051954 -0.051269691157639574 -0.12931407014671545 0.16464056563739193 0.06534662685449062 -0.02929027622329409 0.039485605755591464
0.2152817253996698 0.013829009358586605 0.04918083685081822 -0.09401256154046239 -0.13024340232299708 -0.032555987790718985 -0.04618225566703088 -0.06382824318336658
-0.07184241271136872 0.11676951120146198 -0.052126577522106934 0.04329537947153494 0.16074050155615022 0.06225421435004007 -0.009686376998952683 -0.09742896653235465
0.047839736365063154 -0.10959308502768006 -0.028473666454481517 -0.25114272597827186 -0.02019438686312425 0.13729898302023355 0.030844142645925908 0.05843960226836882
-0.12113629095915543 0.078030740746952 0.05261998125112502 0.10061347187875805 -0.04411748979406762 -0.1931596495662668 0.0644284296475296 -0.1177731522773438
0.0346639939326156 -0.03415980047751978 0.04916577019228031 -0.04691971961052326 -0.0955476503146129 0.09735225131875311 0.1766832583964725 0.11228633339091335
0.006842915108353942 -0.08778057654119266 0.07484260720117214 -0.06767233630457434 0.02300800095079303 -0.1118868970391552 0.24061832118473603 -0.08865785058678476
0.16692000562519138 0.05297214483761197 -0.12554727489485604 -0.06113764124506554 -0.041310648469725667 -0.0687582622654684 -0.08840913552897685 0.03946409493382478
0.08575132407080985 -0.07560982863172357 -0.03551974412828277 0.19491797238759612 0.04965394911766592 0.1429037714546833 0.004933723120295006 -0.08527175850400223
0.11305330101024191 -0.09546077580387896 -0.20933666421026623 -0.11383940739721389 0.0415130852646684 -0.060602657716524407 0.053340247304081885 0.027222363268768215
0.033010350390612134 -0.05877726480379535 -0.08617923402357475 -0.05650861264191491 0.048632681631509495 0.05590640335248155 0.14486165885486188 0.04400129651692204
0.045544569896749265 0.007937483884006925 0.08288333404567289 -0.015895940852400453 0.1674346428200057 -0.12316236909154907 0.03631938595076786 -0.16601642135619726
-0.030609732160147174 -0.11376130190017048 -0.05220316037309563 -0.1235344600037084 0.15297612608937938 0.059603722070245196 -0.023054206177157595 0.03214823082498253
0.20807605811328303 0.010100613427936719 0.04936666218485482 -0.09677320046007001 -0.12630590917705548 -0.044131492155257794 -0.030724899902896046 -0.07272291669106232
-0.0696288829327053 0.1159745619024296 -0.040737546845657197 0.0569317596365467 0.1708364224987161 0.061830624857605126 -0.008456281192698287 -0.09622137024264055
0.049910330583630154 -0.11180247025912815 -0.010202347459487317 -0.2657733579890343 -0.014734504140344447 0.13428447632490872 0.02658708153935692 0.06552061043217475
-0.10640744427599075 0.07020777587800353 0.05981721431732759 0.10555391898263507 -0.05370464991094208 -0.19000451992215053 0.062032675633229666 -0.10056951374497486
0.03788479105991257 -0.03518741016085517 0.04036309742006401 -0.045377291063428506 -0.08846336350140291 0.10527432439959489 0.1761298037677808 0.10388743285317623
0.006212280233108818 -0.0825291235699483 0.07856446494019301 -0.06152692621904013 0.011268431359161332 -0.10095118039714387 0.24319480200220772 -0.07568953673728746
0.17626113011261046 0.045891562914418246 -0.13127824601492558 -0.05998979890433424 -0.04527541882466926 -0.05997157829656475 -0.08903057172618983 0.05441231101387217
0.09610588361641627 -0.07537211137304552 -0.03598492996562655 0.191097326497695 0.05656737778647675 0.13534196981675806 0.013059585399942241 -0.07516968116254003
00000000: e0ee e114 2664 cb3f 14ee eea6 24aa 7e3f
00000010: 7478 ac79 56df a73f 88d4 7fa9 e08e b7bf
00000020: 20b1 2027 d7cc bfbf 15b6 addc 4d3a 9ebf
00000030: 4577 5a63 fa3f aabf 9f5a f3f2 87ad b1bf
00000040: 9f5a a607 395e b0bf c0bd 9047 c053 bf3f
00000050: 5f9f e08c 4cc9 aebf 63d5 b347 b56d a23f
00000060: 80ee 64c9 2c1b c63f 0a0f d954 08fa af3f
00000070: e471 4a32 d414 75bf c4f0 4b22 8d04 b7bf
00000080: 18ba c216 dca3 a63f 2f8f 060c bb9e bebf
00000090: cdbe 45db ac59 9abf 93a8 5170 7e86 d0bf
000000a0: 2755 43d3 d563 93bf 17b4 0eea 2165 c23f
000000b0: da47 f6af 9659 a13f 0560 91d3 802f a93f
000000c0: e8f7 bfe9 baa9 bebf 9210 aa8c 7e3e b03f
000000d0: bd9c e79e e4c7 ab3f 3783 20dd 193b bc3f
000000e0: 5b1c a5a4 ee50 a6bf d828 87f3 e8ac c8bf
000000f0: 4f9f fe64 e677 b13f 0471 21c3 d42b bcbf
00000100: 1b7f f513 ca73 923f 12f3 a4e5 6ba4 a1bf
00000110: fa13 7fa6 c2e9 a63f a40b a2e7 3016 acbf
00000120: d938 1021 f33c b6bf d187 94f5 db0c b83f
00000130: fc26 967d ed0d c83f 5d37 f556 c1fa b93f
00000140: 179c ffef 0150 63bf e81b 42ba ae9e b5bf
00000150: fb54 2f9a 8cc9 b23f a519 bad6 be84 afbf
00000160: 97ba 7e0c 213d 953f 3c51 1895 72fa bfbf
00000170: 1e03 f488 832f d03f 298d 0b69 53a5 b6bf
00000180: f491 3043 b7f9 c43f c9fe 6f2f 610b b13f
00000190: 7d42 107b df38 c2bf 0748 71af 3bf4 afbf
000001a0: 83e7 f116 99b6 a8bf 0479 bd3f e262 b0bf
000001b0: b083 7d45 060e b4bf d098 57f0 5952 a53f
000001c0: d43e 9b57 6983 b63f 94d9 2da6 48ec b5bf
000001d0: 134a 4785 b2aa 92bf d39e 77c4 96b1 c83f
000001e0: 154c b3b5 2668 ab3f 0f81 4705 afd5 c13f
000001f0: f0ab f7fd 060c 913f eced 0c61 c1b7 b4bf
00000200: da77 2718 873c bb3f 8f98 838c e5be b9bf
00000210: 257a d9c9 9d09 cabf 7ab0 646c db6d b9bf
00000220: 1d68 c7ca 04f0 a13f 9e45 cdfc 845f b1bf
00000230: 1872 5981 3bc0 a93f 273a ccb8 5e84 9f3f
00000240: 8cd7 1967 4fdf 933f 189c f95b 797e a6bf
00000250: c258 251c 254f b5bf 93e0 a37d 7e51 b1bf
00000260: 5826 b522 89f1 a63f dd1f f2a9 8907 aa3f
00000270: 66fc ba99 30b3 c23f 9200 f5b4 4544 a13f
00000280: 2479 3809 1233 a93f 2567 8763 57c6 923f
00000290: f13a 5a75 209e b53f 5795 306d 30d4 8bbf
000002a0: 2276 ac6f bace c53f 9fca f346 ecf0 bcbf
000002b0: 879f 8924 2f74 a03f 267b c2f9 28f9 c5bf
000002c0: 16f2 3b8d b978 98bf 6878 4a4a 95b4 bdbf
000002d0: 409e 985d 0540 aabf 6fad 180b 5d8d c0bf
000002e0: 10f7 802a f112 c53f ad73 3e79 8eba b03f
000002f0: 8a21 e129 45fe 9dbf 811a c412 7537 a43f
00000300: f34e 0201 5a8e cb3f de1c 7337 6252 8c3f
00000310: 4375 ba0b 3b2e a93f c4be 3a0d 3511 b8bf
00000320: 1a9f bfd8 d0ab c0bf 0e42 b3ad 2dab a0bf
00000330: 28a6 7d5b 33a5 a7bf 32a0 0839 0c57 b0bf
00000340: d9a1 0fad 4364 b2bf 32ba c74f 9be4 bd3f
00000350: 8272 6bb3 55b0 aabf 9fda cbdd cf2a a63f
00000360: 46c4 a90e 2593 c43f 6edb 57cd c8df af3f
00000370: b9f6 6a83 73d6 83bf cf85 f0d0 1af1 b8bf
00000380: 2640 462e 737e a83f 30c7 0fdc 4a0e bcbf
00000390: b078 e068 3328 9dbf 2f1e adf0 b812 d0bf
000003a0: 813f 8f5c d6ad 94bf 7f48 ec58 0393 c13f
000003b0: 96e8 bf5f 9b95 9f3f 3a5a 11a9 cbeb ad3f
000003c0: 863f 07b8 c902 bfbf 8d3f 9797 d2f9 b33f
000003d0: 24ef 2d95 01f1 aa3f aa9b 41f3 cdc1 b93f
000003e0: 93bb b14f 9196 a6bf b69f e594 74b9 c8bf
000003f0: 88ce 44ae 617e b03f e4c5 609d 6126 bebf
00000400: 9822 94a0 7abf a13f 1215 c7b3 647d a1bf
00000410: 21f3 1d7e 412c a93f 1785 878a dc05 a8bf
00000420: 9297 4f91 cf75 b8bf f623 9bbf 13ec b83f
00000430: f522 4898 8e9d c63f 4aa4 b311 ccbe bc3f
00000440: c04e 9809 5107 7c3f 29ec 77b1 c978 b6bf
00000450: b4c2 4696 e228 b33f bea5 4567 f952 b1bf
00000460: e01c 85ce 688f 973f c753 a2a3 9ea4 bcbf
00000470: 5c47 27c6 94cc ce3f 0fcc cde8 47b2 b6bf
00000480: a8aa 9a7e a25d c53f a760 5a3b 2a1f ab3f
00000490: f73d e3df ee11 c0bf 877e 67d3 6e4d afbf
000004a0: 42dc 4e58 ab26 a5bf e58d c237 249a b1bf
000004b0: fdbb c329 fba1 b6bf e5ca 364a a334 a43f
000004c0: 1e0b 797c ccf3 b53f 15bb 3a6d 2a5b b3bf
000004d0: b559 c9d6 a42f a2bf 7457 6776 12f3 c83f
000004e0: 3abe 270f 3e6c a93f f2bb 6fb8 ab4a c23f
000004f0: cadd 2f37 6235 743f b60e 0cb6 5ed4 b5bf
00000500: a038 8ba6 0ff1 bc3f fce1 200e 1e70 b8bf
00000510: 8d83 5137 8bcb cabf a95d c453 9424 bdbf
00000520: 08b8 22ff 3341 a53f 21e5 e2c1 4f07 afbf
00000530: 2992 76b3 694f ab3f 3436 d6df 2de0 9b3f
00000540: 4ae0 b68e bbe6 a03f b748 29bc 0d18 aebf
00000550: e0bf b99f d70f b6bf f68c 7a66 b2ee acbf
00000560: c48b 3f02 62e6 a83f 9260 129c c39f ac3f
00000570: 9feb 9cab d38a c23f 9a26 0b83 5687 a63f
00000580: b010 6f2c 9e51 a73f 7400 8e0d 8741 803f
00000590: 4c0f 1c99 d737 b53f 889d 6688 0647 90bf
000005a0: 0e8f 9095 7f6e c53f fe98 58ab 9187 bfbf
000005b0: 6c1b bd5d 7498 a23f 0a73 29ae 0640 c5bf
000005c0: 60c3 445a 2858 9fbf 642c 36ef 751f bdbf
000005d0: 77bf 1965 5fba aabf 491b a551 f49f bfbf
000005e0: 38b3 4fc1 b894 c33f 5ced 050a 6184 ae3f
000005f0: 62b8 4396 859b 97bf 80fd 08a0 bb75 a03f
00000600: b9ac 567c 3ca2 ca3f 9e7e bd62 a1af 843f
00000610: aa79 314f 9646 a93f daf1 1ae3 20c6 b8bf
00000620: f67e 9ac2 ca2a c0bf 5f9f 0f27 6798 a6bf
00000630: 9bf3 0521 5976 9fbf be9b db14 f89d b2bf
00000640: 3890 0dcf 32d3 b1bf e7f2 8946 82b0 bd3f
00000650: 3cbd d73e 8ddb a4bf 4c43 7cdb 2826 ad3f
00000660: f47e ccc7 f7dd c53f 6c2f 4f7f 43a8 af3f
00000670: 12ec 58d9 8651 81bf a852 5eb6 f6a1 b8bf
00000680: e1b0 2dcb d88d a93f e8fd 5f31 169f bcbf
00000690: b489 72e5 f7e4 84bf 1181 2d42 6e02 d1bf
000006a0: 2494 3eab 1f2d 8ebf 2986 16d5 3b30 c13f
000006b0: 349b d4d6 a439 9b3f 5a28 056f f5c5 b03f
000006c0: ec60 37ad 843d bbbf 0028 5205 23f9 b13f
000006d0: 3424 76a6 5ca0 ae3f adbb fee5 9405 bb3f
000006e0: b670 0506 2d7f abbf 5933 946f 1152 c8bf
000006f0: ff95 4132 bfc2 af3f cc60 8274 ecbe b9bf
00000700: eb79 3ca5 a265 a33f 055e be8f 1504 a2bf
00000710: ead4 c4ce 78aa a43f 656e 323a b13b a7bf
00000720: aef7 21f5 88a5 b6bf 049e 6714 42f3 ba3f
00000730: 424a 84e1 6b8b c63f 9edd 91e6 5d98 ba3f
00000740: f9e5 f446 0c72 793f 0d52 b3ee a020 b5bf
00000750: fabd 8bff cc1c b43f 244d de0f 7580 afbf
00000760: 7e8c 5141 e713 873f 4e5f 4cc2 efd7 b9bf
00000770: 020e 94dc 0121 cf3f 54a0 efb4 6360 b3bf
00000780: 78e0 b186 b98f c63f f66e c253 197f a73f
00000790: 79b9 a7be b9cd c0bf d684 c6a0 fbb6 aebf
000007a0: f44d 54f6 562e a7bf b14d f23e 98b4 aebf
000007b0: ac7d e821 b5ca b6bf 48d5 9b30 eedb ab3f
000007c0: c9ef 152b 659a b83f f5b0 6031 964b b3bf
000007d0: a4d2 b3e2 9d6c a2bf aa8f d48f e075 c83f
000007e0: d80e 3a3b 66f6 ac3f 24d1 11bb e252 c13f
000007f0: 865c 89e1 fbbe 8a3f 646d 3efa 513e b3bf

X4 f8 [80, 6, 16]
-0.1004085318665782 -0.03576964447685654 0.06515348362662185 0.04955306966593267 0.10122645152010011 0.10030701331484229 -0.0005149599801748856 -0.09660646504837793
0.11528120610480935 -0.029626607945407286 -0.06305072988120675 -0.08057833596165842 -0.04496165089764648 -0.08961413529316388 -0.032905027859324136 0.04390691379590969
-0.09077288024230197 0.06476716405243571 -0.16153295501335033 -0.03195678705242135 0.058301298732029765 -0.04242164550461562 0.017168679685869943 -0.13450448661372388
-0.005153911405423638 -0.08704238877658757 -0.07612157472733927 0.015203699971618176 -0.07571002604037362 -0.0054199196513128045 -0.11800805432252207 -0.0282928913258393
-0.041258799276574554 -0.03981004275468285 0.08925797250235713 0.1238281490204844 0.09029735707591176 -0.2775020494563586 0.00016570984230098273 -0.03525411616332505
0.14008108267731834 -0.07576426257488839 0.10182931564711094 -0.08611379637944272 -0.0034930546306990414 -0.05081293692622562 -0.09525010453551316 0.08882929899912695
0.10036631993886952 -0.11005041795205857 0.13125438321569347 0.06448213554057643 0.04342793306887242 -0.014404937922985665 0.015807501625036437 0.047313378065352046
-0.03125391794765061 0.09900528943496711 0.047194748202117276 -0.06270397960304513 -0.12583036997044775 0.1532956985398648 0.04312217699112515 -0.12823172394702562
0.009820496763449331 0.011964858121654197 0.11782140615593809 0.061114159668988546 0.08818763423055014 -0.048215248738556385 -0.028668626425630225 -0.04434131398983284
0.1837457977313378 0.018741362270792632 -0.09616632560012553 0.17989819202074586 -0.07531237524526431 -0.16119614302553398 0.14377354734694456 0.09146743600403254
-0.05965643978578344 0.03757116191347101 -0.025126788187921197 0.07394789645896156 -0.003993867021863709 0.12730722615760875 -0.01804945840988958 -0.02243604495649908
-0.03682591110558039 0.02674022059702826 0.059538954248885945 -0.0554844772414389 0.0736940077737067 -0.1667141202271601 0.18598967728913585 -0.25836945789255084
-0.11630358090995001 -0.048447354463740475 0.06326279618319126 0.057440152942332 0.09844385825360473 0.11170919928405997 -0.0036166765325654363 -0.09087772337759918
0.11466072045142778 -0.028899447857527166 -0.06302014184963789 -0.07454545771653501 -0.04108513790555321 -0.08024460406676184 -0.049415959619398 0.04621007280358549
-0.09087688764097693 0.07323563983220541 -0.16656470241637245 -0.04782408141520371 0.06493727487739243 -0.04903949776518565 0.016738033158651345 -0.12205749570440914
-0.0012054758832832687 -0.07179521584321674 -0.08107588165565463 0.014393740404013899 -0.07262304703665827 0.0039313943019757165 -0.12945007274161907 -0.03749731391169228
-0.032314067976791414 -0.03822157229787412 0.09228858760484175 0.1102333001445348 0.08685893218864388 -0.27450359685706677 0.009823721945491588 -0.03253545228581373
0.12940149645340474 -0.06379180137123984 0.11198313006640066 -0.09604496088669812 0.012120991917814069 -0.04979957360182847 -0.10158744426877223 0.08135085987328163
0.09145201791905369 -0.11628993330745122 0.12946525794976405 0.07419329435470787 0.03579166820459518 -0.01637149984794666 0.023311593802460666 0.05352518314512224
-0.01732019391393344 0.09651468160367853 0.05033571369722422 -0.06831719652597261 -0.12395933680420596 0.15265702398309883 0.033679944417577025 -0.12450747216067919
0.0034971247164724342 0.01778466062656507 0.11867088135475888 0.06246454314238985 0.1002825681419636 -0.04758459587868241 -0.02515417243540285 -0.038395811439902595
0.1812010330357091 0.025607671729205413 -0.09756318924076939 0.17740785677039708 -0.06934978395223895 -0.1633068652200448 0.14776404116010075 0.08671313356700434
-0.05905896322288371 0.04474119225058891 -0.03170492723134624 0.07476828905559911 -0.006128132932167142 0.11498395238202239 -0.02383844383469652 -0.030211254261633125
-0.041012032058158295 0.030849377409881428 0.0594016026361786 -0.062106513623517774 0.07954082035346836 -0.17300105478307296 0.18787527752861216 -0.2624262516933481
-0.1236698224542592 -0.037624598026274644 0.055398607328770805 0.0486628209417543 0.08423055141324913 0.10747098769216305 -0.014527417393765403 -0.09173495798141673
0.11959527319507574 -0.04320722722517099 -0.055363892027598526 -0.06422774132664175 -0.04468691457592112 -0.09641784190636885 -0.03527197922666278 0.05632011162523054
-0.07642267335410187 0.0769826502116366 -0.16325632324893793 -0.042702704525202466 0.06551827672239131 -0.05025365035609898 0.005159065687171324 -0.11450900862812353
0.007669391993866143 -0.048504412104702334 -0.08684378333138623 0.017056776590977193 -0.07435383983771265 0.010309618241889461 -0.12619507006604072 -0.02808669229436394
-0.028107154330312818 -0.02813623162205034 0.09494226290766652 0.1104316673663003 0.08352504818516839 -0.2664226496812351 0.0064615607981722695 -0.02322690322870726
0.1268232624604656 -0.05882535701393693 0.11947068184892135 -0.08662029298166603 0.014351236178691487 -0.05040196482582907 -0.09525994530942422 0.09461843586760013
0.08474596482745723 -0.1127925315974622 0.13224065516718753 0.07742407374449077 0.04493905398721799 -0.024491405953161842 0.030370660659832332 0.06985173013023033
-0.012585120267006283 0.10080626846619072 0.058985124637043265 -0.06545366556574919 -0.12777107506600713 0.14812632598045725 0.03881371351729144 -0.11855850413691787
00000000: 4238 9ba0 5fb4 b9bf 476f 6f1a 6650 a2bf
00000010: 7e95 6511 e6ad b03f d35f 431b 055f a93f
00000020: 87da c40a fae9 b93f b226 bf6d b8ad b93f
00000030: aa52 0523 ccdf 40bf fb06 f787 33bb b8bf
00000040: 8c47 10b2 1183 bd3f 0225 de00 7056 9ebf
00000050: 8826 d4b6 1724 b0bf 38af b825 c8a0 b4bf
00000060: 60ef 5ba8 3605 a7bf e1ec 57b4 f3f0 b6bf
00000070: 7f3d 0f85 edd8 a0bf ecb8 a48d f77a a63f
00000080: 1d21 0138 e43c b7bf 94ba 75b3 9494 b03f
00000090: 1d19 81a3 1cad c4bf 63ff 8cd6 a35c a0bf
000000a0: 279e bcf6 aad9 ad3f c66e 2b38 4ab8 a5bf
000000b0: d2b3 1097 aa94 913f 56ea 9569 7137 c1bf
000000c0: 72a6 ec8e 441c 75bf da41 29f5 6848 b6bf
000000d0: 4854 f919 b47c b3bf 3818 4011 1e23 8f3f
000000e0: 539d d275 bb61 b3bf 60ae 639a 3233 76bf
000000f0: bad5 fa9d c635 bebf f4a6 d0cb cff8 9cbf
00000100: e856 2193 df1f a5bf 2611 5e5f fb61 a4bf
00000110: 590d ce48 9cd9 b63f 7d00 5e9a 33b3 bf3f
00000120: 0d68 8e43 ba1d b73f f63b bff4 97c2 d1bf
00000130: 8bca e4b4 4cb8 253f 5c15 f1d7 d30c a2bf
00000140: d494 714a 2dee c13f bcf6 f665 4965 b3bf
00000150: 9778 7a6c 7c11 ba3f d021 2fc3 8d0b b6bf
00000160: fa21 dd6c 779d 6cbf c7aa 9f3c 2704 aabf
00000170: 1ead eb93 4f62 b8bf 28bb 2056 84bd b63f
00000180: 8cdf c16d 9bb1 b93f a5e5 03a2 432c bcbf
00000190: 6b1c af91 f1cc c03f 1db1 52b7 e681 b03f
000001a0: 9501 87a0 2f3c a63f afb6 3d0a 5680 8dbf
000001b0: 2743 0b7a d72f 903f dc6e e886 7539 a83f
000001c0: 6bff e976 8300 a0bf 2013 4120 6958 b93f
000001d0: 7860 24f8 e829 a83f 9460 b935 5e0d b0bf
000001e0: 81ee eea5 351b c0bf 1850 ec85 319f c33f
000001f0: 7a83 d127 1c14 a63f 27c2 54aa e569 c0bf
00000200: c997 6fc3 c41c 843f 5997 ab12 0881 883f
00000210: 6a5f 352e 8b29 be3f ba9f 33ea 5a4a af3f
00000220: f38b eefc 7693 b63f 4a4f 0049 abaf a8bf
00000230: 0f63 adf3 4e5b 9dbf 2b60 e59a e7b3 a6bf
00000240: 9c4a 0478 fb84 c73f 4b65 2488 ef30 933f
00000250: b2d4 6d37 5b9e b8bf 4858 ab69 e706 c73f
00000260: f598 a9fc ab47 b3bf e09b 4441 13a2 c4bf
00000270: cf48 f1ed 2b67 c23f 7a4a 49ee 686a b73f
00000280: 1760 c0f3 498b aebf 14d5 61ff 863c a33f
00000290: d222 1536 d6ba 99bf 3534 e6d4 3fee b23f
000002a0: b648 e583 df5b 70bf 9219 726a 9a4b c03f
000002b0: 7fee 52a6 8e7b 92bf 3de7 5b7d 79f9 96bf
000002c0: db0f b087 d8da a2bf 55e9 ced3 c961 9b3f
000002d0: f88b acca e37b ae3f e011 601e 7668 acbf
000002e0: ff9a 4c49 9cdd b23f b21a 1467 e356 c5bf
000002f0: f8da ac7e 82ce c73f a4c2 fb0c 2089 d0bf
00000300: 137a 6a4c 12c6 bdbf 7ebc ff75 17ce a8bf
00000310: bd0a a998 fd31 b03f d6a6 bab4 cb68 ad3f
00000320: 83f8 b0df 9d33 b93f cf5e 965d f998 bc3f
00000330: a2ba ae6d b8a0 6dbf 2b7b d731 c343 b7bf
00000340: ac84 79ac 675a bd3f 1ba1 ae1d d197 9dbf
00000350: 10c5 3b88 1622 b0bf e236 f53e 6915 b3bf
00000360: 5cdf 4f77 1c09 a5bf 9aaf 250e e98a b4bf
00000370: 8a79 ee74 0c4d a9bf e3d5 dfbe d8a8 a73f
00000380: e258 612c b543 b7bf 0220 fb25 92bf b23f
00000390: e4ec c5fe fd51 c5bf f671 47e3 657c a8bf
000003a0: 80c7 e3af ba9f b03f cc3b 3a7e b41b a9bf
000003b0: 4d26 1064 c623 913f 8f37 48f8 283f bfbf
000003c0: 981a abdf 21c0 53bf f44d 0ed8 2b61 b2bf
000003d0: 4a95 3494 63c1 b4bf 5338 6b22 777a 8d3f
000003e0: 4354 f58b 6c97 b2bf 5450 469f 5d1a 703f
000003f0: faed 71ea d191 c0bf 7c8b e011 d932 a3bf
00000400: d673 5232 788b a0bf 8cc9 0a26 c791 a3bf
00000410: 2b8c 8e91 39a0 b73f af09 0de3 3f38 bc3f
00000420: fc9e 1d11 633c b63f 8bab c888 7791 d1bf
00000430: a4d9 d8a3 751e 843f 2968 0e9f 7ca8 a0bf
00000440: 1111 a96d 3a90 c03f 8774 a4d4 a854 b0bf
00000450: 7dc2 5629 edaa bc3f 3837 f40d 6796 b8bf
00000460: 1e86 0eff e3d2 883f 89fe f267 547f a9bf
00000470: ba8f d17e a201 babf c93f a8f2 68d3 b43f
00000480: 2294 1d42 6669 b73f 92d6 6854 2dc5 bdbf
00000490: 7464 6e4c 5192 c03f 3e02 d6ec 54fe b23f
000004a0: e9e7 d018 4953 a23f 2dcd bbc1 b0c3 90bf
000004b0: 8e2f ff93 fede 973f c2cd 3d1e a767 ab3f
000004c0: d8d1 ae89 62bc 91bf cb57 12a9 2fb5 b83f
000004d0: df00 4d48 9ac5 a93f 735d d55c 3c7d b1bf
000004e0: 3ca0 9b91 ccbb bfbf 668c c1ee 438a c33f
000004f0: 5df3 9b67 7f3e a13f d3a9 09c1 b8df bfbf
00000500: d06a 3189 00a6 6c3f 4cd5 0b5f 2436 923f
00000510: c7fb 6702 3761 be3f e68b e943 5afb af3f
00000520: fa53 874e 1eac b93f 3844 2f16 025d a8bf
00000530: 5f3b dfef 03c2 99bf a522 e0a4 9da8 a3bf
00000540: 84e4 716f 9831 c73f df20 6ac2 e538 9a3f
00000550: e322 15b3 e6f9 b8bf 75ef 70f7 4cb5 c63f
00000560: 7c3d 0f4e e8c0 b1bf 2d8b aa46 3de7 c4bf
00000570: e359 279e eee9 c23f 8dd0 cdf8 d432 b63f
00000580: 5de9 27f7 f93c aebf fe2a 004b 51e8 a63f
00000590: 7450 29d3 a03b a0bf 5b8c 45bc 0324 b33f
000005a0: ce98 7728 d019 79bf eeac 0b9b 966f bd3f
000005b0: f055 a1e2 1a69 98bf 9073 19f4 b2ef 9ebf
000005c0: 9155 dd70 87ff a4bf 7342 4fac fa96 9f3f
000005d0: 0704 4e09 e369 ae3f 695f c3c9 6ccc afbf
000005e0: fb7a 1d86 c95c b43f 31c0 3b08 e624 c6bf
000005f0: 122d 5b0e 4c0c c83f 7aa0 287a 97cb d0bf
00000600: 9273 f152 d3a8 bfbf e692 1804 8843 a3bf
00000610: 1429 71cd 345d ac3f 3bae f350 55ea a83f
00000620: 03da a427 2290 b53f cb1a 68f9 3783 bb3f
00000630: c400 d0f4 8cc0 8dbf 481c 6e34 f17b b7bf
00000640: 7c08 21bb cb9d be3f 0d12 c4f7 411f a6bf
00000650: 238f 46f3 a758 acbf 866e 7eb0 3a71 b0bf
00000660: f150 5309 34e1 a6bf e21e bdf5 d6ae b8bf
00000670: 4cc7 7c3a 2b0f a2bf a02a 135b fdd5 ac3f
00000680: e58f bab2 6f90 b3bf fdb4 048d 22b5 b33f
00000690: 1115 9c4c 95e5 c4bf c7e2 c5fe 20dd a5bf
000006a0: 691d d047 cec5 b03f d270 91b1 d8ba a9bf
000006b0: b014 7826 ac21 753f 61b9 275f 7650 bdbf
000006c0: d4a5 b3bc f069 7f3f 4d1e 67ff 91d5 a8bf
000006d0: 32eb 44e9 643b b6bf aca0 88e6 5477 913f
000006e0: 045c 6f6e da08 b3bf b91c 7789 351d 853f
000006f0: 35cf 6cf9 2827 c0bf cead 6d03 c2c2 9cbf
00000700: 757e 8732 1fc8 9cbf f8f8 988a becf 9cbf
00000710: 6a58 32da 224e b83f 4af0 c7ef 3f45 bc3f
00000720: b124 5ac6 e561 b53f 3ada d295 110d d1bf
00000730: 70c0 f204 7077 7a3f 26c4 0417 cbc8 97bf
00000740: 7ce2 51a2 be3b c03f d8cb 1971 5b1e aebf
00000750: 5437 5f6f a195 be3f a5b4 865d bf2c b6bf
00000760: 7b72 5b50 2e64 8d3f 1583 294d 49ce a9bf
00000770: 8c04 b9ad f462 b8bf 7267 a6ef e938 b83f
00000780: 99e2 665b e9b1 b53f 9bb3 71aa f8df bcbf
00000790: 0085 9204 43ed c03f a7da a768 10d2 b33f
000007a0: 3166 606e 4002 a73f ce55 686e 4614 99bf
000007b0: 2be6 2a89 7c19 9f3f 9c75 7a90 cde1 b13f
000007c0: 3043 b43f 3ac6 89bf 2b49 4b8a 70ce b93f
000007d0: ca7d 885a 4c33 ae3f 521a 0249 92c1 b0bf
000007e0: eb41 6476 cd5a c0bf 1fa0 e1ae cdf5 c23f
000007f0: 5ddb 621c 64df a33f 2c45 eea1 d959 bebf
